…
[2019-07-07 19:07:06] - Training 	 Epoch: 9 	 Loss: 0.033013 	 Accuracy 0.93 	 Precision: 0.76 	 Recall: 0.75 	 F1: 0.75
[2019-07-07 19:07:29] - Validation 	 Epoch: 9 	 Loss: 0.100848 	 Accuracy 0.92 	 Precision: 0.71 	 Recall: 0.69 	 F1: 0.70


[2019-07-07 19:07:29] - Evaluation: <class 'algorithms.lstm.MP_CAE_tile_by_tile.MPCAEModel'>
[2019-07-07 19:07:51] - Evaluation 	 Epoch: 0 	 Loss: 0.123721 	 Accuracy 0.91 	 Precision: 0.71 	 Recall: 0.71 	 F1: 0.71

[2019-07-07 19:07:51] - Saved model as mp_caelstm_section_mp_training_uniform_random_fill_10000_block_map_10000_house_10000_model
[2019-07-07 19:07:51] - Model: MPCAEModel(
  (_normalisation_layer1): BatchNorm1d(112, eps=1e-05, momentum=0.1, affine=True, track_running_stats=True)
  (_fc_core): Linear(in_features=112, out_features=8, bias=True)
  (_normalisation_layer2): BatchNorm1d(8, eps=1e-05, momentum=0.1, affine=True, track_running_stats=True)
  (_fc): Linear(in_features=8, out_features=8, bias=True)
  (_MPCAEModel__encoder): CAE(
    (encoder): CAEEncoder(
      (conv1): Conv2d(1, 64, kernel_size=(3, 3), stride=(1, 1), padding=(1, 1))
      (bn1): BatchNorm2d(64, eps=1e-05, momentum=0.1, affine=True, track_running_stats=True)
      (conv2): Conv2d(64, 32, kernel_size=(3, 3), stride=(1, 1), padding=(1, 1))
      (bn2): BatchNorm2d(32, eps=1e-05, momentum=0.1, affine=True, track_running_stats=True)
      (conv3): Conv2d(32, 16, kernel_size=(3, 3), stride=(1, 1), padding=(1, 1))
      (bn3): BatchNorm2d(16, eps=1e-05, momentum=0.1, affine=True, track_running_stats=True)
      (conv4): Conv2d(16, 8, kernel_size=(3, 3), stride=(1, 1), padding=(1, 1))
      (bn4): BatchNorm2d(8, eps=1e-05, momentum=0.1, affine=True, track_running_stats=True)
      (latent_linear): Linear(in_features=128, out_features=100, bias=True)
      (bn_latent): BatchNorm1d(100, eps=1e-05, momentum=0.1, affine=True, track_running_stats=True)
    )
    (decoder): CAEDecoder(
      (latent_linear): Linear(in_features=100, out_features=128, bias=True)
      (bn_latent): BatchNorm1d(128, eps=1e-05, momentum=0.1, affine=True, track_running_stats=True)
      (deconv1): ConvTranspose2d(8, 16, kernel_size=(2, 2), stride=(2, 2))
      (bn1): BatchNorm2d(16, eps=1e-05, momentum=0.1, affine=True, track_running_stats=True)
      (deconv2): ConvTranspose2d(16, 32, kernel_size=(2, 2), stride=(2, 2))
      (bn2): BatchNorm2d(32, eps=1e-05, momentum=0.1, affine=True, track_running_stats=True)
      (deconv3): ConvTranspose2d(32, 64, kernel_size=(2, 2), stride=(2, 2))
      (bn3): BatchNorm2d(64, eps=1e-05, momentum=0.1, affine=True, track_running_stats=True)
      (deconv4): ConvTranspose2d(64, 1, kernel_size=(2, 2), stride=(2, 2))
      (bn4): BatchNorm2d(1, eps=1e-05, momentum=0.1, affine=True, track_running_stats=True)
    )
  )
)
[2019-07-07 19:07:51] - Model loss: 0.1237211748957634
[2019-07-07 19:07:51] - Model accuracy: 0.9061666666666667
[2019-07-07 19:07:51] - Model precision: 0.7118792459361052
[2019-07-07 19:07:51] - Model recall: 0.7085992955241485
[2019-07-07 19:07:51] - Model f1: 0.7081658969732717
[2019-07-07 19:07:51] - Model confusion matrix: 
…
